p1_navigation/checkpoint.pth (torch_old, 214187 bytes, 10 tensors)

model.input_layer.weight f4 [256, 37]
0	0xbd6b6cf5	-0.057476956
1	0x3e3d0490	0.18458772
2	0xbeb5c17e	-0.35499185
3	0xbd98fc08	-0.07469946
4	0x3d692d1a	0.056927778
5	0xbf109d86	-0.5649036
6	0x3c6f5717	0.014608166
7	0x3f09ed21	0.53877455
8	0xbe3fc372	-0.187269
9	0x3e83b6be	0.2572536
10	0xbd6a3f4a	-0.057189263
11	0xbf39d974	-0.7259743
12	0x3def5442	0.11685993
13	0xbdd66a1c	-0.104694575
14	0xbfdcd3fb	-1.7252191
15	0xbe98fcfa	-0.29880506
16	0x3ddf89b3	0.10914936
17	0x3e9d7f97	0.30761406
18	0xbdf8243e	-0.12116288
19	0xb9f4fe14	-0.0004672861
20	0xbecd0e07	-0.40049765
21	0xbd37bcc6	-0.044857763
22	0x3e27a195	0.16370232
23	0x3e853353	0.2601572
24	0xbee68c46	-0.45028895
25	0x3e393801	0.1808777
26	0x3e0bd23e	0.1365442
27	0xbdec6a22	-0.11543681
28	0xbf06d552	-0.5266925
29	0x3f07db03	0.5306856
30	0xbeaea3ae	-0.34109253
31	0x3a9cb908	0.0011956999
32	0x3e06dacf	0.13169406
33	0xbe1f25b2	-0.15541723
34	0xbdf6df06	-0.12054257
35	0x3d4a4073	0.04937787
36	0xbdb8221f	-0.08990883
37	0x3e1ec004	0.15502936
38	0xbf53a00d	-0.82666093
39	0x3de47e11	0.11156858
40	0xbdd90585	-0.10596756
41	0xbf58a802	-0.8463136
42	0xbf13caf3	-0.5773155
43	0x3d4e1441	0.050312284
44	0x3d9c6774	0.076369196
45	0xbf01d87c	-0.50720954
46	0x3de2320c	0.11044702
47	0x3e87605f	0.26440713
48	0xbf985b52	-1.1902869
49	0xbea0c1d2	-0.31397873
50	0xbf167b90	-0.5878229
51	0xbef5d836	-0.48016518
52	0xbea81327	-0.32827112
53	0x3ee6cf4d	0.45080033
54	0xbeb8a265	-0.36061397
55	0xbe009c59	-0.12559642
56	0xbec49ccc	-0.38400877
57	0xbe9bcc6e	-0.30429405
58	0xbe0f183d	-0.1397409
59	0xbe7ed786	-0.24886903
60	0xbdd79907	-0.105272345
61	0xbf0c7358	-0.548635
62	0xbe7bb55b	-0.245809
63	0x3e132fe7	0.14373742
64	0xbe52aa0f	-0.20572685
65	0xbe213683	-0.15743451
66	0xbecb4fc3	-0.3970929
67	0xbe3142a0	-0.17310572
68	0x3e6d0bd7	0.23149048
69	0xbdbb81f2	-0.091556445
70	0xbf1bd517	-0.60872024
71	0xbe4c5e09	-0.19957747
72	0x3edeee15	0.43541017
73	0x3e30cece	0.1726639
74	0xbe8b9e12	-0.27269036
75	0xbcb5be40	-0.022185445
76	0x3e77881d	0.24173017
77	0xbda2e38a	-0.07953556
78	0x3e937cbe	0.28806108
79	0xbe0f9763	-0.14022593
80	0xbf78eba2	-0.9723455
81	0xbbc96059	-0.0061455187
82	0x3eafa61d	0.34306422
83	0xbf3ce47b	-0.73786134
84	0x3ec49ccb	0.38400874
85	0x3e277277	0.16352259
86	0xbf2d1879	-0.6761547
87	0xbec0d617	-0.37663338
88	0x3e09eeae	0.13469955
89	0xbe82b7dc	-0.255309
90	0xbef3cba9	-0.47616318
91	0xbda576e8	-0.0807932
92	0x3f252d38	0.64522123
93	0x3d37c47f	0.044865128
94	0xbefa9db4	-0.48948443
95	0xbd239388	-0.03993562
96	0x3e407ca7	0.18797551
97	0xbf1e31ca	-0.6179472
98	0xbefffe0a	-0.49998504
99	0xbdc80058	-0.097656906
100	0xbe3b26b7	-0.18276487
101	0x3e99a3a2	0.30007654
102	0xbf804593	-1.0021232
103	0x3e3732db	0.17890494
104	0xbe0f5760	-0.13998175
105	0x3d63967f	0.055563446
106	0xbe45b555	-0.19307454
107	0xbeddcd11	-0.43320516
108	0xbe1939ba	-0.14963427
109	0x3d6d70e3	0.057968985
110	0xbcc007ee	-0.023441281
111	0x3f1eae83	0.61985034
112	0xbf41bbd4	-0.7567723
113	0xbeab8256	-0.33497876
114	0xbf61c179	-0.8818584
115	0xc02a1130	-2.657299
116	0xbc8ee87f	-0.017444847
117	0x3dccc706	0.09998898
118	0x3de11472	0.10990228
119	0x3d5f6697	0.054541197
120	0x3db5dcd6	0.08880012
121	0xbe2edc60	-0.17076254
122	0xbde543b2	-0.111945525
123	0xbe268e8d	-0.16265316
124	0x3e22a642	0.15883735
125	0xbca9fbdd	-0.02074998
126	0xbd041f09	-0.03225616
127	0x3d9f5a8c	0.07780942
128	0xbdba091d	-0.090837695
129	0x3c94fb6d	0.018186295
130	0x3e289a54	0.16465122
131	0xbe61869b	-0.22024004
132	0x3c1ae293	0.009453434
133	0x3d583035	0.05278035
134	0x3e2aa06e	0.16662762
135	0xbd01d90d	-0.031701136
136	0xbe5a7b25	-0.21336038
137	0x3dea487b	0.11439606
138	0x3e865b6c	0.26241624
139	0x3e34e9ef	0.17667364
140	0x3ef0ff59	0.47069815
141	0xbe6cdd26	-0.23131236
142	0x3e999b3c	0.30001247
143	0x3e0cd1ab	0.13751857
144	0x3dfd1844	0.12358144
145	0x3d26e2d0	0.04074365
146	0xbd82d48d	-0.06388197
147	0x3b5a9eaf	0.0033358743
148	0xbe9f77b3	-0.3114601
149	0xbe02b365	-0.12763746
150	0x3cb188bf	0.02167165
151	0xbdce1c63	-0.10064008
152	0xbf189688	-0.5960469
153	0x3e5783cc	0.2104637
154	0x3b3aeca7	0.0028522403
155	0xbf3ccc5a	-0.73749316
156	0x3e9dbd7c	0.30808628
157	0xbf08689c	-0.5328462
158	0x3e590723	0.21194129
159	0xbe8357bf	-0.25652882
160	0xbde62f83	-0.11239531
161	0xbf28ccdd	-0.65937597
162	0xbf212c38	-0.629581
163	0x3d274e0d	0.04084592
164	0x3dfdbfc8	0.12390095
165	0x3d491be1	0.049098853
166	0xbec8bf6e	-0.3920855
167	0xbe1f6e6d	-0.15569468
168	0xbf3864c4	-0.72028756
169	0x3e35e187	0.17761813
170	0x3ed19ed9	0.40941504
171	0xbf9299c0	-1.1453171
172	0x3dd67875	0.10472194
173	0x3d12b85e	0.035820358
174	0xbdcb56a4	-0.09928635
175	0xbdfac8db	-0.122453414
176	0x3edd5e79	0.4323614
177	0xbe69e361	-0.22840644
178	0x3e8e6e6f	0.2781863
179	0xbec1c510	-0.3784566
180	0x3e3b3b6f	0.18284391
181	0xbe7ab79e	-0.24484107
182	0x3de7896f	0.1130551
183	0x3eaa2bbc	0.33236492
184	0x3d0692fb	0.032855015
185	0xbd44812e	-0.047974758
186	0x3d13dc99	0.03609905
187	0x3ded402e	0.11584507
188	0x3d4092fc	0.047015175
189	0x3d58902e	0.052871875
190	0x3efbaf23	0.49157056
191	0xbe4b04b2	-0.1982601
192	0xbf72a3ea	-0.94781363
193	0xbf5e2e9e	-0.8678988
194	0xc0247b89	-2.57004
195	0xbe4cd658	-0.2000364
196	0x3d290e04	0.041273132
197	0xbcba3238	-0.022729024
198	0x3db27e16	0.08715455
199	0xbe1f87b6	-0.15579113
200	0x3e16d357	0.14729057
201	0xbda44283	-0.080204986
202	0x3df797a2	0.120894685
203	0xbdf005c3	-0.11719849
204	0x3dfd4ef6	0.12368576
205	0x3e6e021e	0.23242995
206	0x3db3c5c5	0.08777956
207	0x3dd7c3fd	0.10535429
208	0x3e0f6d0d	0.14006443
209	0x3d19cde9	0.037549887
210	0xbd1d4d54	-0.038403824
211	0xbb9f9268	-0.004869748
212	0x3e4b6511	0.19862773
213	0x3e4c9b04	0.19981009
214	0x3d6f0d26	0.05836215
215	0x3e126d66	0.14299545
216	0xbd68fcce	-0.05688172
217	0x3e17b38a	0.14814582
218	0x3d7d4e3c	0.06184219
219	0x3e17b330	0.14814448
220	0xbdad58b0	-0.084641814
221	0xbc288f75	-0.010288109
222	0x3bb34086	0.0054703383
223	0x3de28fcc	0.11062583
224	0x3dfa41ca	0.122195795
225	0x3cff4583	0.031161075
226	0xbdaebd62	-0.08532216
227	0xbd1a7de1	-0.037717704
228	0x3b597909	0.0033183715
229	0x3dd75df7	0.10515969
230	0x3eadfb9e	0.3398103
231	0x3e3e21ce	0.18567583
232	0x3e033bfb	0.1281585
233	0x3e21fb08	0.15818417
234	0x3e38a361	0.18031074
235	0x3e07a86c	0.13247842
236	0x3cb0a779	0.021564232
237	0x3df297da	0.1184537
238	0xbcfa39f5	-0.030545214
239	0x3dfc5e16	0.12322633
240	0x3e225291	0.15851809
241	0xbd9564b7	-0.072946005
242	0x3d8f24c9	0.06989438
243	0x3e4471ba	0.19184008
244	0x3d4e6bb9	0.0503957
245	0x3e3ba503	0.18324666
246	0x3e99c43c	0.30032527
247	0x3d4365be	0.04770445
248	0xbcef306d	-0.029197896
249	0x3d1b5d23	0.03793062
250	0x3d454d4c	0.04816942
251	0x3e1a8a2a	0.15091768
252	0x3ef7da11	0.4840856
253	0xbf26150f	-0.6487588
254	0xbf71040d	-0.94146806
255	0xbf7902c1	-0.9726983

model.input_layer.bias f4 [256]
0	0x3db26f83	0.087126754
1	0xbd56d196	-0.05244597
2	0xbd8869ff	-0.06660842
3	0xbd503976	-0.05083605
4	0x3d4ffe89	0.050779853
5	0x3deb1d94	0.11480251
6	0xbd6b788d	-0.057488013
7	0xbe315209	-0.1731645
8	0xbe8da7d6	-0.2766711
9	0xbe92e1f3	-0.2868801
10	0x3d75c786	0.060004734
11	0x3e4bbec2	0.19896987
12	0xbe717451	-0.23579527
13	0xbda8956f	-0.08231627
14	0xbdf0ebd7	-0.11763733
15	0xbd1b5d8d	-0.037931014
16	0xbd8a94bf	-0.06766652
17	0xbdd041bd	-0.101687886
18	0xbd9a7e3c	-0.075436085
19	0xbeb2b3fc	-0.34902942
20	0xbe1b1eab	-0.15148418
21	0x3d8140f2	0.063112155
22	0xbd6b40b3	-0.05743475
23	0xbd12265a	-0.035681106
24	0x3b2639c9	0.0025364032
25	0xbda050d2	-0.07827915
26	0xbcbd22df	-0.023087917
27	0x3e214ab8	0.15751159
28	0xbb6da120	-0.0036259368
29	0x3d04ea98	0.03245029
30	0x3e6153ab	0.22004573
31	0xbcfad9c1	-0.030621411
32	0xbe7218ea	-0.23642316
33	0x3c4f7b87	0.012663729
34	0xbea05805	-0.31317154
35	0x3df69582	0.12040235
36	0xbe1ed040	-0.15509129
37	0xbdf8d9cd	-0.12150917
38	0xbe9b2c68	-0.30307317
39	0xbe187841	-0.14889623
40	0xbe887c55	-0.26657358
41	0x3dd45ffa	0.103698686
42	0x3e8a2190	0.2697873
43	0x3b4fab76	0.0031687892
44	0xbc74f97c	-0.01495206
45	0xbd6c5a79	-0.05770347
46	0xbe8db7d2	-0.27679306
47	0xbe6bdcff	-0.23033522
48	0xbe3d2e49	-0.18474688
49	0xbd85bb2f	-0.06529843
50	0xbdd2c355	-0.10291163
51	0x3e5e843b	0.2173013
52	0xbe0273af	-0.12739442
53	0xbe8f1603	-0.2794648
54	0xbd8e089e	-0.06935237
55	0xbdaf3507	-0.08555036
56	0xbd9f719c	-0.07785341
57	0x3a2d1659	0.00066027563
58	0x3e14789b	0.14499132
59	0x3cccf79e	0.025020417
60	0x3d8ba8d3	0.0681931
61	0x3e6dbbed	0.23216219
62	0x3e2a98c9	0.16659845
63	0xbe395188	-0.18097508
64	0xbe415abe	-0.18882272
65	0xbddb6897	-0.10713308
66	0xbec39538	-0.38199782
67	0xbe921d4b	-0.28537974
68	0xbe74282f	-0.23843454
69	0xbdeffeab	-0.11718496
70	0xbe4c785b	-0.19967787
71	0x3e1dabd8	0.15397584
72	0xbdf308f7	-0.11866944
73	0xbd6991d6	-0.057023846
74	0xbd707b14	-0.058711126
75	0xbe4f2483	-0.20228772
76	0x3bdf6456	0.006817381
77	0xbc817a9c	-0.015805535
78	0xbe1d91a0	-0.15387583
79	0x3dbccb12	0.0921842
80	0xbd24c597	-0.0402275
81	0xbde7b3c1	-0.11313582
82	0xbea53f9e	-0.322751
83	0xbe2f7ebe	-0.17138192
84	0xbd91b0b9	-0.07113785
85	0xbdb837bd	-0.08995006
86	0xbe4de09f	-0.20105217
87	0x3d66e531	0.056370918
88	0xbd9eb90e	-0.0775014
89	0xbd73fe8b	-0.059568923
90	0x3ccceed8	0.025016233
91	0xbeb01701	-0.3439255
92	0x3c9c0dd8	0.01904957
93	0xbe0cf635	-0.13765796
94	0xbe2ba71a	-0.16762963
95	0x3be95177	0.007120307
96	0xbe1d0ff6	-0.1533812
97	0xbe311ab4	-0.17295343
98	0x3e51ba4a	0.2048122
99	0x3d8ebc4c	0.069695085
100	0xbddccbaa	-0.10781033
101	0xbdf06ae6	-0.11739139
102	0xbe940415	-0.28909364
103	0xbcc2fe1b	-0.023802808
104	0xbe804573	-0.25052986
105	0xbe7c8d6c	-0.24663323
106	0x3ce4b60b	0.027918836
107	0xbdc018f0	-0.093797565
108	0xbdf0b46c	-0.11753163
109	0x3e336f72	0.17522982
110	0x3e01776d	0.12643214
111	0x3d0228fc	0.031777367
112	0x3d4cdc5b	0.050014835
113	0x3a821b25	0.0009926303
114	0xbc406697	-0.011743209
115	0xbe8804a9	-0.26566055
116	0xbe4a83a0	-0.19776773
117	0x3bb15265	0.0054114335
118	0x3e2eb739	0.17062081
119	0x3df74e95	0.12075535
120	0xbd5c46f7	-0.053778615
121	0xbe330b36	-0.17484745
122	0xbeec7081	-0.46179584
123	0x3d8e1084	0.06936744
124	0xbe0a1d83	-0.1348782
125	0xbe453268	-0.1925751
126	0x3d49949b	0.049213987
127	0x3dfd93c8	0.12381703
128	0xbd4768a3	-0.048683774
129	0xbe8fe63a	-0.28105336
130	0xbe84d4d0	-0.25943613
131	0xbc8af065	-0.016960332
132	0xbd540dff	-0.05177116
133	0xbdef3593	-0.1168014
134	0xbcb981be	-0.022644874
135	0xbe5496ce	-0.20760652
136	0xbea83c08	-0.328583
137	0xbea28b08	-0.31746697
138	0x3c98895e	0.01862019
139	0xbea6347c	-0.32461917
140	0x3c1a3eb3	0.009414363
141	0x3ccd60c0	0.025070548
142	0xbdf1759e	-0.11790012
143	0xbddb3ec7	-0.10705333
144	0xbe0e6e28	-0.13909209
145	0xbd6c5735	-0.057700355
146	0xbe0c70c7	-0.13714896
147	0x3d6b8213	0.057497095
148	0xbdcb7534	-0.09934464
149	0xbbea9718	-0.007159125
150	0xbd4db38b	-0.050220054
151	0xbe11b9d6	-0.14231047
152	0xbe7f0a1b	-0.24906199
153	0xbe8825f4	-0.26591456
154	0xbd17fb6a	-0.037105
155	0x3da985bc	0.08277461
156	0x3db6e4f0	0.08930385
157	0xbdf2af56	-0.11849849
158	0xbe2f3e80	-0.17113686
159	0xbd33e56a	-0.04391996
160	0x3ddd2d58	0.10799664
161	0x3eb99443	0.36245927
162	0xba21683d	-0.00061571953
163	0xbe076b8a	-0.13224617
164	0xbe36f9cc	-0.17868727
165	0xbdfebe48	-0.12438637
166	0xbd0f7187	-0.035020377
167	0xbe28263a	-0.16420832
168	0xbca375ba	-0.019953597
169	0xbe553d3d	-0.20824142
170	0xbc812810	-0.015766174
171	0xbd6529b1	-0.055947963
172	0x3e60ad16	0.21941027
173	0x3dc5227b	0.09625717
174	0xbd9b4636	-0.07581751
175	0xbda74201	-0.08166886
176	0x3d180219	0.037111375
177	0xbe24680d	-0.16055317
178	0x3de644c5	0.112435855
179	0xbe8e8df9	-0.27842692
180	0x3d7a8072	0.06115765
181	0x3cc34f28	0.023841456
182	0xbeac6c94	-0.3367659
183	0xbe3b461b	-0.18288462
184	0xbdc0c28a	-0.094121054
185	0x3e064112	0.1311076
186	0x3df47aeb	0.11937507
187	0xbe5c1b53	-0.21494798
188	0xbd4d2c91	-0.05009133
189	0x3debcd40	0.11513758
190	0xbe7a21f5	-0.24427016
191	0x3dbdd9e1	0.09270073
192	0xbd96a729	-0.07356102
193	0x3db5130c	0.088415235
194	0x3e3204aa	0.17384592
195	0xbcd191e6	-0.025582265
196	0x3dd1a147	0.10235839
197	0xbe1e8d30	-0.15483546
198	0xbde0c2db	-0.10974666
199	0xbdaf9c1a	-0.08574696
200	0x3b83d071	0.004022651
201	0xbe810059	-0.25195578
202	0xbd21fc38	-0.039547175
203	0x3bcbee52	0.0062234784
204	0xbdbc3dc1	-0.09191466
205	0xbe712320	-0.23548555
206	0xbddbee45	-0.10738806
207	0xbc5092de	-0.012730328
208	0x3d216b4d	0.03940897
209	0xbe510da3	-0.20415358
210	0x3bf31176	0.007417853
211	0xbeaeb11f	-0.34119508
212	0xbdabdfaf	-0.08392274
213	0xbd916c69	-0.07100756
214	0x3e5d54b3	0.21614341
215	0xbe759177	-0.23981272
216	0xbea639af	-0.32465884
217	0x3d49804e	0.049194627
218	0xbe003c82	-0.12523082
219	0xbeb5675a	-0.35430413
220	0xbdae69b3	-0.08516254
221	0xbe2b1cf4	-0.16710263
222	0xbe37e9a3	-0.17960219
223	0xbde667ab	-0.11250242
224	0xbdebd286	-0.115147635
225	0xbdff73dd	-0.12473271
226	0xbe463084	-0.19354445
227	0x3aa5c5cd	0.001264745
228	0xbdd870ee	-0.10568415
229	0xbe0e6215	-0.13904603
230	0xbd3fb48f	-0.046803053
231	0xbdd51a84	-0.10405448
232	0xbdd8696f	-0.10566985
233	0xbcc21077	-0.023689492
234	0xbda2e8b7	-0.07954543
235	0xbe9a29f5	-0.30110136
236	0xbd8a3042	-0.06747486
237	0x3d091cda	0.03347478
238	0xbe0527eb	-0.13003509
239	0xbe36caad	-0.17850752
240	0xbd750564	-0.059819594
241	0x3df12175	0.117739595
242	0xbe6474de	-0.22310206
243	0xbd28c0cf	-0.0411995
244	0xbe6ab886	-0.22921953
245	0xbec43e56	-0.3832881
246	0xbd370af4	-0.04468818
247	0x3e941e84	0.28929532
248	0xbd297cf4	-0.04137893
249	0x3e638965	0.2222038
250	0xbe3e0e8b	-0.18560235
251	0xbe7b6559	-0.2455038
252	0xbda2fa86	-0.0795794
253	0x3e09fa56	0.13474402
254	0x3cebd67f	0.028788803
255	0xbdfdab38	-0.12386173

model.fc0.weight f4 [128, 256]
0	0x3f1aba0c	0.60440135
1	0xbea2f6e8	-0.31829
2	0x3bf74232	0.007545733
3	0xbc4717e5	-0.012151693
4	0x3eac26fa	0.33623487
5	0x3e27b9f6	0.16379532
6	0xbecfb652	-0.40568787
7	0xbaa6aa51	-0.0012715553
8	0x3c56d85a	0.013113106
9	0x3ebaa2cb	0.36452326
10	0xbf0967f0	-0.5367422
11	0xbe3d5b1e	-0.1849179
12	0xbe5fc3e1	-0.21852066
13	0x3e14dda3	0.14537673
14	0x3da11a1d	0.07866309
15	0x3ca26745	0.019824633
16	0x3d8e3489	0.06943614
17	0x3e98c573	0.29838142
18	0xbe49259a	-0.1964325
19	0x3eb16a7d	0.34651557
20	0xbf13f310	-0.5779276
21	0x3d0b50d5	0.034012634
22	0xbdc831a9	-0.09775097
23	0xbe458c4b	-0.19291799
24	0x3eaec20d	0.34132424
25	0xbe59252d	-0.21205588
26	0xbea5734e	-0.32314533
27	0x3e19207a	0.14953795
28	0xbdb5286f	-0.08845603
29	0xbe2702e4	-0.16309696
30	0xbea9addb	-0.33140454
31	0xbe85617d	-0.2605094
32	0x3e24d1a8	0.16095603
33	0xbe3ec931	-0.18631436
34	0x3ea8cd61	0.32969192
35	0x3d8d04dd	0.06885693
36	0xbd330a18	-0.043710798
37	0xbec8af9f	-0.39196488
38	0xbe4ee7d2	-0.2020562
39	0xbe89d138	-0.26917434
40	0x3c9608d9	0.018314766
41	0xbedbcc8f	-0.42929503
42	0xbeac1b88	-0.33614755
43	0x3d7c8b2d	0.061656166
44	0x3e37b27b	0.17939179
45	0xbeb2caf7	-0.34920475
46	0x3eba24a5	0.36356083
47	0x3cba5d30	0.022749513
48	0xbd766b87	-0.06016114
49	0xbe31ad37	-0.17351232
50	0xbe6a3baf	-0.2287433
51	0x3ed4686b	0.41485915
52	0xbc5856e0	-0.013204306
53	0xbda0ea33	-0.0785717
54	0xbe14eccb	-0.14543454
55	0xbe4b9afd	-0.19883342
56	0xbee23077	-0.441776
57	0xbc32333e	-0.010876475
58	0xbf3dd5c1	-0.7415429
59	0x3f2e8e16	0.68185556
60	0x3ea45117	0.32093117
61	0xbe1aa9b2	-0.15103796
62	0x3e3a560b	0.18196885
63	0xbd86f6dd	-0.06590054
64	0x3e2d5926	0.16928539
65	0x3e92906a	0.28625804
66	0xbee066aa	-0.43828326
67	0x3e0a7b7e	0.13523671
68	0x3cee608e	0.029098775
69	0x3d3d338c	0.046191737
70	0x3d3b31b0	0.045701683
71	0xbe1dc3b0	-0.1540668
72	0x3d4733f6	0.04863354
73	0x3e6fea65	0.23429258
74	0xbe505130	-0.2034347
75	0x3dcb3bcd	0.099235155
76	0xbe022ebc	-0.1271314
77	0x3e9e41b7	0.3090951
78	0xbe33f330	-0.17573237
79	0x3e0d37ec	0.13790864
80	0xbd6c2b6f	-0.05765861
81	0xbeffd8d9	-0.4997013
82	0xbe9f6b22	-0.31136423
83	0x3dd39497	0.10331076
84	0xbe986bc4	-0.2976972
85	0x3c19219f	0.009346395
86	0xbe29644d	-0.16542168
87	0x3ccadbae	0.024762955
88	0xbd814d4c	-0.06313571
89	0x3edbce3c	0.42930782
90	0xbda45b89	-0.080252714
91	0xbe13fe73	-0.14452533
92	0xbe33b849	-0.17550768
93	0xbe9d7fb8	-0.30761504
94	0xbf0edb8d	-0.5580376
95	0x3c4ec0af	0.012619182
96	0xbe0853a3	-0.13313155
97	0xbd27259e	-0.04080736
98	0x3c0efa41	0.008726657
99	0x3e30f21c	0.17279857
100	0xbf39f9cb	-0.7264678
101	0x3e7aa225	0.24475916
102	0xbc6e01ab	-0.014526765
103	0x3dcd75f3	0.10032263
104	0x3d74642b	0.05966584
105	0x3e897724	0.2684871
106	0xbd17e9b3	-0.037088107
107	0x3e8c0d6a	0.27353984
108	0x3ec1b03e	0.37829775
109	0xbc70729c	-0.0146757625
110	0xbe46d99b	-0.19418947
111	0x3e5f8feb	0.21832244
112	0xbd2ba993	-0.041909765
113	0xbe5effae	-0.21777222
114	0xbe8899ad	-0.26679745
115	0xbeb8b2b6	-0.36073846
116	0xbe242a5d	-0.16031785
117	0x3d10a141	0.035310034
118	0x3d5b7885	0.053581733
119	0x3e725226	0.2366415
120	0xbaa44ccb	-0.0012535093
121	0xbe4cf1f0	-0.20014167
122	0xbdbf467d	-0.093396164
123	0x3e3cd98a	0.1844236
124	0x3e5e89eb	0.21732299
125	0x3e772ede	0.24138972
126	0xbf127e3c	-0.5722387
127	0xbe1808d4	-0.14847118
128	0xbca7e37b	-0.020494213
129	0xbe31d59d	-0.17366643
130	0xbeb5d9c1	-0.35517696
131	0xbe5c6ce4	-0.21525913
132	0xbe4e26a9	-0.20131935
133	0xbe38cf2a	-0.18047777
134	0xbddc10f3	-0.1074542
135	0xbe27a145	-0.16370113
136	0x3db95ae2	0.09050538
137	0x3d66f238	0.05638334
138	0xbeae04f8	-0.33988166
139	0xbd45143b	-0.048114996
140	0x3e239997	0.15976559
141	0xbdc2565c	-0.09489128
142	0xbdb50950	-0.08839667
143	0x3d070fb1	0.03297395
144	0x3ced1e4e	0.028945114
145	0x3e178985	0.14798553
146	0xbe6444c1	-0.22291853
147	0xbe155f6b	-0.1458718
148	0xbe06f285	-0.13178451
149	0xbd2a33c7	-0.041553285
150	0xbe8eba74	-0.27876627
151	0xbc4a4dcf	-0.012347653
152	0xbdcb0479	-0.099129625
153	0xbdd44d2b	-0.10366281
154	0x3efff87d	0.4999427
155	0xbe832020	-0.25610447
156	0xbc58ac36	-0.013224652
157	0xbe661b4c	-0.2247135
158	0xbeb214f5	-0.34781614
159	0xbe18a3ea	-0.14906278
160	0xbea9a3eb	-0.33132872
161	0x3bb82810	0.00562001
162	0xbe1162ee	-0.14197895
163	0x3e4c7f54	0.19970447
164	0xbea4c27f	-0.3217964
165	0x3e2a5e8b	0.16637628
166	0xbe19a9d7	-0.15006195
167	0xbe923ddc	-0.2856282
168	0x3e465181	0.19367029
169	0x3e0a094c	0.13480109
170	0x3da946ce	0.08265458
171	0xbdcc4694	-0.09974399
172	0xbed6d74d	-0.41961136
173	0xbe8a6803	-0.2703248
174	0xbe58ec00	-0.21183777
175	0xbeb117ef	-0.34588572
176	0xbc719720	-0.014745504
177	0xbe6dfdea	-0.23241392
178	0x3cb877a5	0.022517988
179	0xbded0802	-0.11573793
180	0xbd5e55c5	-0.054281015
181	0xbdc1e5a0	-0.094676256
182	0xbdb34ac6	-0.08754496
183	0xbc9eddd5	-0.019392887
184	0xbe313588	-0.17305577
185	0xbdea2ddb	-0.114345275
186	0x3ec31de0	0.3810873
187	0xbeb6a7a9	-0.3567479
188	0xbec65391	-0.3873563
189	0x3d1a8fde	0.03773486
190	0x3cfc9757	0.030833883
191	0x3e765bd3	0.24058466
192	0xbf0d9d3f	-0.55318063
193	0xbcfd7a85	-0.03094221
194	0x3e214407	0.15748607
195	0xbe1a71d9	-0.15082492
196	0xbe1e0be8	-0.1543423
197	0x3ed025be	0.40653795
198	0xbe244c4e	-0.16044733
199	0xbd60ade0	-0.05485332
200	0xbe0b2f8e	-0.1359236
201	0xbf1724c4	-0.59040475
202	0x3eeed1df	0.46644494
203	0x3ea59b14	0.32344878
204	0xbef3bee1	-0.47606567
205	0x3ebde190	0.37086153
206	0xbe3fcdc4	-0.18730837
207	0x3d1e0cf2	0.038586564
208	0xbde2a057	-0.11065739
209	0x3cb2ad89	0.021811264
210	0x3ec81cfd	0.39084616
211	0x3dff952f	0.124796264
212	0x3c44e175	0.012016644
213	0x3ec0d298	0.3766067
214	0x3de128b4	0.10994092
215	0xbe4385c1	-0.19093992
216	0xbc9b6cfe	-0.01897287
217	0x3ea5f8e8	0.32416463
218	0xbe6b3489	-0.2296926
219	0xbf1e5f00	-0.6186371
220	0xbe11cce5	-0.14238317
221	0xbd78a5d0	-0.060705006
222	0x3e69964e	0.22811243
223	0xbe7b628e	-0.24549314
224	0xbe7e48b8	-0.24832428
225	0xbe8c2e68	-0.27379155
226	0x3e129262	0.14313653
227	0xbddefcc1	-0.10888053
228	0xbec019d6	-0.3751971
229	0x3dffcff2	0.12490834
230	0xbee738b9	-0.45160463
231	0xbe2e814e	-0.17041513
232	0x3e0ff48e	0.14058134
233	0x3ee563e3	0.4480277
234	0xbdeca72d	-0.11555324
235	0x3db9b01e	0.09066795
236	0x3dc680b5	0.09692518
237	0x3e82af81	0.25524524
238	0x3dab83c8	0.08374745
239	0xbdd5eb6d	-0.104452945
240	0xbe812374	-0.2522236
241	0xbe5193c0	-0.20466518
242	0x3e0b5644	0.13607126
243	0x3d5d2671	0.05399174
244	0x3d9fbf4e	0.0780016
245	0xbe5942b8	-0.21216857
246	0xbd9397ef	-0.072067134
247	0x3e9ccecf	0.30626532
248	0xbf8f8808	-1.1213388
249	0x3d9c1c6b	0.07622608
250	0x3d986c1e	0.07442497
251	0xbd54dabf	-0.051966425
252	0xbe5b14df	-0.2139468
253	0xbe706c7c	-0.23478884
254	0x3e137afc	0.14402384
255	0x3e45b928	0.19308913

model.fc0.bias f4 [128]
0	0xbe3673a1	-0.17817546
1	0x3dd33f22	0.10314776
2	0x3c9fee6d	0.01952287
3	0x3ded3cc1	0.115838535
4	0xbc3fc3c3	-0.011704388
5	0x3da1cf3c	0.07900855
6	0xbe1e2163	-0.15442424
7	0xbd96f32a	-0.073705986
8	0xbdf58a5e	-0.11989282
9	0xbdd50ca4	-0.10402802
10	0x3dfbbf78	0.12292379
11	0xbe400426	-0.18751583
12	0xbea6c7e3	-0.32574376
13	0x3e44c38b	0.19215219
14	0x39378953	0.00017503397
15	0x3cf81b54	0.030286469
16	0x3cee1244	0.029061444
17	0xbe23c39b	-0.15992586
18	0xbd2a8ab4	-0.041636184
19	0xbe6bdada	-0.23032704
20	0xbd892d8c	-0.066981405
21	0xbc1428c8	-0.009042926
22	0xbd41af23	-0.047286164
23	0xbe5b770f	-0.21432136
24	0xbeb63b8d	-0.3559231
25	0xbe70d520	-0.235188
26	0xbedffa00	-0.43745422
27	0x3d77cfed	0.060501028
28	0x3e833b7b	0.25631317
29	0xbd842f4c	-0.06454334
30	0xbe914719	-0.28374556
31	0xbe4411f3	-0.19147472
32	0xbe728235	-0.23682483
33	0x3d9472e1	0.07248474
34	0x3db6d84e	0.089279756
35	0x3d553afe	0.052058212
36	0x3e70ffd5	0.23535092
37	0xbea9ff24	-0.3320247
38	0xbd7d0bd2	-0.06177885
39	0x3dc5dfab	0.09661802
40	0xbd9cbb3f	-0.07652902
41	0xbd2cc8e8	-0.042183787
42	0xbe0c6014	-0.13708526
43	0xbdc2b745	-0.09507612
44	0xbe656c04	-0.22404486
45	0xbe0e8d8f	-0.13921188
46	0xbc5c99f1	-0.013464437
47	0xbe1775eb	-0.14791076
48	0x3cc938cd	0.024563218
49	0xbd889328	-0.06668693
50	0x3b55b3d8	0.0032608416
51	0xbd9d04dc	-0.076669425
52	0x3e06e871	0.13174607
53	0xbdb923f0	-0.09040058
54	0xbe916960	-0.28400707
55	0x3d1e0919	0.038582895
56	0x3dbccf3d	0.09219215
57	0xbe0088a3	-0.12552123
58	0xbe982543	-0.29715928
59	0x3d47b97d	0.04876088
60	0xbe1875dd	-0.14888711
61	0xbe15cf62	-0.14629892
62	0xbe3f2f0b	-0.18670289
63	0xbe10381d	-0.14083906
64	0xbd27beb0	-0.04095334
65	0xbeaefa47	-0.3417532
66	0x3e4db5e1	0.20088913
67	0xbe4cce33	-0.20000534
68	0xbe375136	-0.17902073
69	0x3dccbebf	0.099973194
70	0xbdf75c87	-0.12078195
71	0xbe22975c	-0.15878052
72	0xbe03b01e	-0.12860152
73	0xbe178a88	-0.14798939
74	0xbe80cf48	-0.25158143
75	0xbe0097f9	-0.12557973
76	0xbe26abf5	-0.16276534
77	0xbe1bb5e0	-0.15206099
78	0xbe2bc6f0	-0.16775107
79	0xbe0c55f0	-0.13704658
80	0xbca1a320	-0.019731104
81	0xbd231e0d	-0.03982358
82	0x3e00d8e1	0.12582733
83	0x3e096487	0.13417254
84	0xbe1c43f2	-0.15260294
85	0xbd7f6b83	-0.06235839
86	0x3eb2ec1d	0.34945765
87	0x3e960426	0.2930004
88	0x3d57c4d5	0.052677948
89	0xbdedfc4b	-0.11620387
90	0xbdca1e92	-0.09869112
91	0xbd6e421a	-0.058168508
92	0xbe32ff2d	-0.17480154
93	0xbe04362c	-0.1291129
94	0x3d6668b8	0.05625221
95	0xbe6048b9	-0.21902741
96	0xbe823681	-0.25432208
97	0xbe1901da	-0.14942113
98	0xbd022080	-0.031769276
99	0xbe9cd1bc	-0.30628765
100	0xbe836f15	-0.25670686
101	0xbe0826db	-0.13296072
102	0xbdc9f37f	-0.09860896
103	0x3d067282	0.032824047
104	0xbe56bb61	-0.20969917
105	0xbe115715	-0.14193375
106	0x3c8071bb	0.01567923
107	0x3e407b91	0.18797137
108	0xbe2e620f	-0.17029594
109	0xbe741e57	-0.23839699
110	0x3eaaa7f7	0.33331272
111	0xbe66e10f	-0.2254679
112	0xbe5089d2	-0.20365074
113	0x3e8a2e32	0.2698837
114	0x3e1c7650	0.15279508
115	0xbd7f8961	-0.062386874
116	0xbd664174	-0.056214765
117	0xbe803e74	-0.25047648
118	0xbd17ae64	-0.037031546
119	0xbcd94121	-0.026520314
120	0x3d2fab7d	0.042888153
121	0x3d4092f0	0.04701513
122	0xbdd54df4	-0.10415259
123	0x3ce40e46	0.027838837
124	0xbe279fc4	-0.1636954
125	0xbe4bcbd2	-0.1990197
126	0xbd97a687	-0.074048094
127	0x3da0e0f4	0.078554064

model.fc1.weight f4 [64, 128]
0	0x3eb20327	0.3476803
1	0x3df1523b	0.11783262
2	0xbe53b8c5	-0.20675953
3	0xbd8f75d6	-0.07004897
4	0xbc97afc6	-0.018516432
5	0xbe499b08	-0.19688046
6	0x3d945db7	0.07244437
7	0x3c281aa5	0.010260259
8	0xbd9d83e5	-0.076911725
9	0xbec45c43	-0.3835164
10	0xbeab7d0b	-0.33493838
11	0x3cfedfe3	0.031112617
12	0xbe4e2e8a	-0.2013494
13	0x3e7063c8	0.23475564
14	0xbddccb15	-0.10780922
15	0xbcab691a	-0.02092414
16	0xbe89b5c2	-0.26896483
17	0x3e7386d6	0.23781905
18	0x3ea37b48	0.31929994
19	0xbf111157	-0.56667084
20	0x3bbee8af	0.005826078
21	0x3ea55d7f	0.32297894
22	0xbca716b1	-0.020396562
23	0x3e8066f3	0.25078544
24	0xbe5f7ebd	-0.2182569
25	0x3da02fd9	0.07821626
26	0xbc0b3787	-0.0084971255
27	0xbda4a6e7	-0.080396466
28	0xbe9f03d7	-0.31057617
29	0xbf197d42	-0.59956753
30	0xbe03cc37	-0.1287087
31	0x3dd7392f	0.10508954
32	0x3eaf2fe4	0.34216225
33	0xbccb4eef	-0.024817912
34	0x3e932470	0.28738737
35	0x3f2d52ce	0.67704475
36	0xbe8b7d02	-0.2724381
37	0xbc55f336	-0.013058474
38	0xbdb50aef	-0.08839976
39	0x3dae64f7	0.08515351
40	0x3f065a9d	0.52482015
41	0xbe46f5a6	-0.19429645
42	0x3da9ed2e	0.082971916
43	0xbe306554	-0.17226154
44	0x3edbfe8f	0.4296765
45	0xbe6d10ad	-0.23150893
46	0x3d67e7f9	0.05661771
47	0x3e159a07	0.14609538
48	0xbd927413	-0.07151046
49	0x3e538cf6	0.20659241
50	0x3eca21d2	0.39478928
51	0x3d792aec	0.06083195
52	0x3ea5491f	0.3228235
53	0x3f206f82	0.6267015
54	0x3cbc3524	0.022974558
55	0xbebfe2e7	-0.374778
56	0xbed5f08d	-0.41785088
57	0x3d4cfd95	0.050046522
58	0x3dc7e53b	0.09760519
59	0x3e295657	0.16536842
60	0x3d973ccc	0.07384643
61	0xbe8a105d	-0.2696561
62	0xbe5c6a50	-0.2152493
63	0x3d8443a7	0.06458216
64	0xbde83ce0	-0.11339736
65	0x3caee21b	0.02134805
66	0x3de8d041	0.11367846
67	0x3eed40a7	0.46338388
68	0xbddfbd6f	-0.109248035
69	0xbd62797d	-0.05529164
70	0x3ed975ca	0.42472678
71	0xbe6ce3bb	-0.23133747
72	0x3e773fa6	0.24145374
73	0xbe03346a	-0.12812963
74	0x3b5ddb1a	0.0033852519
75	0x3db651b8	0.08902305
76	0x3ec1d258	0.37855792
77	0xbe848a97	-0.25886986
78	0xbe7a4264	-0.24439389
79	0x3dc19685	0.094525374
80	0xbe9afcf1	-0.30271104
81	0xbd814bad	-0.06313262
82	0xbc1dd8a7	-0.0096341735
83	0xbe285e56	-0.16442236
84	0xbd1062ae	-0.03525036
85	0x3ebc9c08	0.36837792
86	0x3cdbdb1b	0.026837876
87	0xbde2230f	-0.11041843
88	0xbc8db456	-0.017297905
89	0xbeb4ab7b	-0.3528708
90	0x3d0f5a92	0.034998484
91	0xbdfe74c4	-0.12424615
92	0xbe4992de	-0.19684932
93	0xbe8a61b8	-0.27027678
94	0xbef71ef3	-0.482658
95	0xbd8436d7	-0.06455772
96	0xbd8c13d2	-0.06839718
97	0x3deb63cb	0.114936434
98	0xbeec6022	-0.46167094
99	0xbeae4af1	-0.3404155
100	0xbdc35449	-0.095375605
101	0x3e9ddc81	0.30832294
102	0xbe865b96	-0.2624175
103	0xbebdd310	-0.3707509
104	0x3dac6f04	0.08419612
105	0x3ebd5ebe	0.36986345
106	0xbca9d828	-0.020732954
107	0x3de9ce0b	0.11416253
108	0xbe92b55c	-0.2865399
109	0x3e2dd6f2	0.16976526
110	0xbe79ad1d	-0.24382444
111	0x3e2bfd5f	0.16795872
112	0x3ec01eb0	0.37523413
113	0xbef63c67	-0.48092958
114	0xbeed4a92	-0.46345955
115	0xbd701ab6	-0.058619224
116	0x3e09f5f3	0.13472728
117	0x3d86915c	0.06570694
118	0xbed01f71	-0.40648988
119	0x3d91b1e9	0.07114012
120	0x3e9f3c77	0.3110082
121	0x3e856342	0.2605229
122	0xbdef62f6	-0.11688797
123	0x3d933ddf	0.07189535
124	0xbd9c1959	-0.07622022
125	0x3e7f3814	0.24923736
126	0xbc4faff2	-0.012676226
127	0xbe074704	-0.13210684
128	0x3e3bb796	0.18331751
129	0x3eb7b44e	0.3587975
130	0xbd52ef92	-0.051498003
131	0x3da55d3c	0.08074424
132	0xbf01a3fc	-0.50640845
133	0xbe21cd67	-0.15801011
134	0xbf172b4e	-0.5905045
135	0x3c8436fc	0.0161395
136	0xbe50e058	-0.2039808
137	0x3d2ffd49	0.04296616
138	0xbf03f9d1	-0.51553065
139	0xb94e5516	-0.00019677388
140	0xbf57f9f8	-0.843658
141	0xbeb6419a	-0.35596925
142	0xbe35e832	-0.17764357
143	0xbf323274	-0.69608235
144	0x3ef26636	0.47343606
145	0xbefadf67	-0.48998567
146	0xbe977f58	-0.29589343
147	0xbe70fdb8	-0.23534286
148	0xbea34f4d	-0.3189644
149	0xbd320020	-0.04345715
150	0xbe726ba8	-0.2367388
151	0x3e2264fe	0.15858838
152	0xbed4faf7	-0.4159772
153	0xbd29959b	-0.04140244
154	0xbeb1eea4	-0.3475238
155	0xbec2c966	-0.3804428
156	0xbd97a238	-0.07403988
157	0xbf1ab17e	-0.6042708
158	0xbed7700f	-0.4207768
159	0xbddff65e	-0.10935663
160	0x3eb088e0	0.34479427
161	0xbe16869c	-0.14699787
162	0xbf44d2e6	-0.76884305
163	0xbea9388a	-0.33050948
164	0x3d9018fb	0.07036015
165	0xbf21949f	-0.631174
166	0xbdf9f781	-0.12205411
167	0xbf12078c	-0.57042766
168	0x3eb4c19f	0.3530397
169	0xbd77537f	-0.060382362
170	0x3ece47b4	0.4028908
171	0x3e0cdd6a	0.13756338
172	0xbf06a345	-0.5259288
173	0x3e86a30b	0.26296267
174	0xbf5eb1f1	-0.8699027
175	0x3ef3e4c3	0.4763547
176	0x3e70bed6	0.23510298
177	0x3d3e06ad	0.046393085
178	0xbd7a1a82	-0.061060436
179	0xbe76b1fb	-0.24091332
180	0x3d531c6a	0.05154077
181	0xbe064cfa	-0.13115302
182	0xbd66fe8c	-0.0563951
183	0x3e7597d7	0.23983704
184	0xbe50defd	-0.20397563
185	0x3c804487	0.015657676
186	0xbeb7f14b	-0.3592628
187	0xbd9efcc3	-0.07763054
188	0xbf23f290	-0.64041996
189	0x3db4cc24	0.08827999
190	0xbe248be1	-0.16068985
191	0xbe6a471a	-0.22878686
192	0xbe41c655	-0.18923314
193	0xbe848054	-0.25879157
194	0xbeaf8906	-0.34284228
195	0x3f0ea17c	0.55715156
196	0xbf66ea58	-0.9020133
197	0xbea6f4b5	-0.32608572
198	0xbf27d961	-0.6556607
199	0xbd0f29cf	-0.03495198
200	0xbed7bfc7	-0.42138502
201	0xbf254c51	-0.64569575
202	0xbf2c0a4d	-0.6720322
203	0x3ebf3a3b	0.37349114
204	0x3e801bc3	0.2502118
205	0x3e46b70b	0.19405763
206	0xbf1e4ab2	-0.61832726
207	0xbf53693d	-0.82582456
208	0xbe2d086e	-0.16897747
209	0xbd776b89	-0.060405288
210	0xbea3fa3e	-0.32026857
211	0xbd249010	-0.04017645
212	0xbe8c9040	-0.27453804
213	0xbebc3e03	-0.3676606
214	0xbe3d6be3	-0.18498187
215	0xbec31e43	-0.38109025
216	0x3eb2b0aa	0.3490041
217	0x3edf59d5	0.43623224
218	0x3ef56dcc	0.4793533
219	0xbefa65fe	-0.4890594
220	0x3e296bc1	0.16545011
221	0xbd02f710	-0.0319739
222	0xbd58f5bc	-0.052968726
223	0xbe872d8b	-0.26401934
224	0xbecfa844	-0.40558064
225	0xbf1b87d8	-0.60754156
226	0x3a8b7328	0.0010639178
227	0xbe150adc	-0.14554924
228	0xbebcf981	-0.36909106
229	0xbf116d9e	-0.5680789
230	0x3e5a4403	0.21315007
231	0x3f0a4efb	0.54026765
232	0xbf65ec10	-0.8981333
233	0x3dd1fc2e	0.102531776
234	0xbe67222d	-0.22571631
235	0xbccbeb7b	-0.02489256
236	0xbf35364e	-0.7078599
237	0xbe4d97d0	-0.20077443
238	0xbec72095	-0.38892046
239	0xbe7b5ec8	-0.24547875
240	0xbd505d3e	-0.050870173
241	0x3d5db7ca	0.054130353
242	0x3cab459e	0.02090722
243	0x3c069667	0.00821457
244	0x3dc4c44c	0.09607753
245	0x3db70ed7	0.08938377
246	0xbedd40b7	-0.43213436
247	0xbeced841	-0.40399364
248	0xbe11616a	-0.14197317
249	0xbef77a22	-0.48335367
250	0xbe9ccc07	-0.3062441
251	0xbd033fe7	-0.032043364
252	0xbea06c04	-0.3133241
253	0xbf45f8ed	-0.77332956
254	0xbdc6dd95	-0.09710232
255	0xbf585b82	-0.8451463

model.fc1.bias f4 [64]
0	0x3e582a8a	0.21109977
1	0x3d95e916	0.07319848
2	0xbd1c787a	-0.038200833
3	0xbe1a4c2e	-0.15068123
4	0x3baf4eb0	0.0053499565
5	0xbd96cc60	-0.073632
6	0xbe357e8d	-0.17724057
7	0xbd94a8c2	-0.072587505
8	0xbe161e9e	-0.14660117
9	0x3da67e01	0.08129502
10	0xbda50e64	-0.080593854
11	0xbe3c6537	-0.18397985
12	0x3ecc420e	0.39894146
13	0x3c65f750	0.014036015
14	0xbde7993d	-0.11308525
15	0x3e466603	0.19374852
16	0xbd7cf804	-0.061759964
17	0xbdd713b1	-0.10501803
18	0xbddd0943	-0.10792782
19	0x3cd2c8b9	0.025730478
20	0xbd6a9102	-0.057267196
21	0xbd46fa58	-0.04857859
22	0xbe14cd16	-0.14531359
23	0xbe0f8326	-0.14014873
24	0xbcad2c19	-0.021139191
25	0x3ecb72cc	0.3973602
26	0x3ec06dbc	0.3758372
27	0x3f392d12	0.72334397
28	0xbda7e376	-0.081976816
29	0xbd66c5f4	-0.056341127
30	0xbef71901	-0.48261264
31	0x3f5d5b10	0.86467075
32	0x3c562f51	0.013072805
33	0x3f02d15b	0.511007
34	0x3f20a8cb	0.6275756
35	0xbe7f911f	-0.24957703
36	0xbd81cd57	-0.063379936
37	0x3e88798c	0.26655233
38	0xbe9bc440	-0.30423164
39	0x3ea2e74d	0.31817093
40	0x3f523bd8	0.82122564
41	0xbd9f4f90	-0.07778847
42	0xbf3ba23c	-0.73294425
43	0x3d5787f5	0.052619893
44	0xbe1de7d6	-0.1542047
45	0x3d9b280f	0.07576
46	0xbe55b8e2	-0.20871308
47	0x3e4480e0	0.19189787
48	0xbea657d7	-0.3248889
49	0xbceea259	-0.029130148
50	0x3d5abb17	0.05340108
51	0x3e8d6227	0.27613947
52	0x3daf0774	0.085463434
53	0xbf12f1ad	-0.5740002
54	0xbd63fb4b	-0.055659574
55	0xbeb2a969	-0.34894875
56	0x3e67871f	0.22610138
57	0xbe5ea8dd	-0.21744104
58	0xbdd9613c	-0.10614249
59	0x3e436772	0.1908243
60	0xbee7d2ba	-0.4527796
61	0xbe2c26ef	-0.16811727
62	0xbcbcb244	-0.023034222
63	0x3e9820a9	0.29712418

model.fc2.weight f4 [32, 64]
0	0xbefca764	-0.4934646
1	0x3ecb01cf	0.39649817
2	0x3e9282ab	0.28615317
3	0xbefa4984	-0.48884213
4	0xbf0d532c	-0.55205035
5	0x3d0455bf	0.032308336
6	0xbd05e46e	-0.03268855
7	0xbec28b26	-0.37996787
8	0x3d8cae31	0.06869162
9	0xbe389066	-0.18023834
10	0x3dc601b5	0.09668294
11	0x3d1398f9	0.036034558
12	0x3e83f326	0.25771445
13	0xbed5c946	-0.41755122
14	0x3ddda136	0.10821764
15	0x3e15aaed	0.14615984
16	0xbeca8d00	-0.395607
17	0xbd2c562d	-0.04207437
18	0x3e8837b9	0.26605013
19	0xbe902254	-0.2815119
20	0x3e8ed046	0.27893275
21	0x3ef7edaa	0.4842351
22	0xbeb40025	-0.3515636
23	0x3cf78e0e	0.030219104
24	0xbf25c060	-0.64746666
25	0xbe6a7861	-0.22897483
26	0xbd3fe069	-0.046844874
27	0xbcdaff4c	-0.026733063
28	0xbea07a3d	-0.3134326
29	0x3f43d732	0.76500237
30	0xbed8ce7c	-0.42345035
31	0xbd58a22f	-0.052889045
32	0xbf7bfe09	-0.984345
33	0xbdc7eb40	-0.09761667
34	0xbeb1437b	-0.34621796
35	0xbe52a5a9	-0.20571007
36	0xbdd70517	-0.10499018
37	0xbd1e5a2b	-0.03866021
38	0x3f292c9c	0.66083694
39	0xbf3cc7bb	-0.73742265
40	0x3e6b53c9	0.2298118
41	0x3dabc34f	0.083868615
42	0x3dc9a0b9	0.098451085
43	0xbe986710	-0.2976613
44	0xbe092fcf	-0.13397144
45	0xbe87530e	-0.26430553
46	0x3efd3cfb	0.49460587
47	0xbf4d8e66	-0.8029541
48	0x3f3cf975	0.7381814
49	0xbdb4e729	-0.08833153
50	0xbe319142	-0.17340568
51	0xbe377f4d	-0.17919655
52	0x3da04ed6	0.07827537
53	0xbc64daaa	-0.013968149
54	0x3f4ecbfe	0.8078002
55	0x3dc8f14b	0.09811648
56	0xbf465517	-0.77473587
57	0x3c17c3d7	0.009263
58	0x3efe4bcd	0.49667206
59	0xbe929992	-0.2863279
60	0x3ebfbbf9	0.374481
61	0x3ec2e8c9	0.38068226
62	0xbe9b5885	-0.30340973
63	0xbf1a8711	-0.60362345
64	0xbf2293da	-0.63506854
65	0x3e150c04	0.14555365
66	0xbea04a61	-0.31306747
67	0xbf511f61	-0.81688505
68	0x3cb83feb	0.022491416
69	0x3e972f88	0.2952845
70	0x3d7897f0	0.060691774
71	0x3e5138c7	0.20431815
72	0xbf16bfc7	-0.5888638
73	0xbef51ace	-0.47872013
74	0x3e85a9a6	0.26105994
75	0xbeb468e3	-0.35236272
76	0x3efd902b	0.49524054
77	0x3e288372	0.16456392
78	0x3d2243ad	0.039615322
79	0xbeaec65d	-0.34135714
80	0xbebd271c	-0.369439
81	0x3dbe7128	0.092989266
82	0xbdb4cb8b	-0.08827885
83	0x3e6be076	0.23034844
84	0xbec55152	-0.38538605
85	0x3ee15f39	0.44017962
86	0xbc90a54e	-0.017656948
87	0x3d4ecab8	0.050486296
88	0xbda28900	-0.07936287
89	0xbf2e9a2a	-0.68203986
90	0xbde0e433	-0.109810255
91	0xbbda98f6	-0.0066710664
92	0x3e3e5181	0.18585779
93	0xbdb18de9	-0.08669645
94	0x3ecabe2d	0.39598218
95	0xbe0d6855	-0.13809331
96	0x3e2308d3	0.15921335
97	0xbee54b30	-0.44783926
98	0x3e742cc0	0.23845196
99	0x3eccffae	0.40038818
100	0xbe18fcf8	-0.1494025
101	0xbf1669f8	-0.58755445
102	0x3e2731b8	0.1632756
103	0xbecc4b3a	-0.39901143
104	0x3ea4be43	0.32176408
105	0xbf119cc7	-0.5687985
106	0xbfc81183	-1.5630344
107	0x3eca4fb7	0.39513943
108	0xbdc4064e	-0.09571515
109	0x3ebcbda5	0.36863437
110	0x3cd9af80	0.026572943
111	0xbe736242	-0.23767951
112	0x3e801d5a	0.25022393
113	0xbd4b037b	-0.049563866
114	0xbeeb5409	-0.4596255
115	0x3bed405a	0.0072403373
116	0x3e12e484	0.14344984
117	0xbe954a3a	-0.29158193
118	0x3ea38c86	0.31943148
119	0xbe95ad66	-0.29233855
120	0x3ec398d8	0.38202548
121	0x3dd20395	0.102545895
122	0xbe92f68d	-0.28703728
123	0xbf3b0657	-0.7305655
124	0xbe75ec46	-0.24015912
125	0xbea266dd	-0.31719103
126	0xbeffed29	-0.49985626
127	0x3da477f9	0.080306955
128	0xbf94846e	-1.1602914
129	0x3f58bd53	0.84663886
130	0x3dbbfa9e	0.09178661
131	0xbf32db71	-0.6986609
132	0xbf46ed36	-0.77705705
133	0xbe39b608	-0.18135846
134	0x3cf0fda6	0.029417824
135	0x3f3cfcca	0.73823225
136	0xbf0a0f13	-0.5392925
137	0xbf18fd31	-0.5976134
138	0x3e90e884	0.28302395
139	0xbef57b3a	-0.47945577
140	0x3f6a4700	0.9151459
141	0xbee9ab68	-0.45638585
142	0x3c98f50b	0.018671533
143	0x3e6f05fe	0.2334213
144	0x3e922c7f	0.28549573
145	0xbd6a63dc	-0.05722414
146	0xbe768777	-0.24075113
147	0x3ecffac0	0.40620995
148	0xbee320b2	-0.44360882
149	0xbec95d81	-0.3932915
150	0x3ea2a754	0.31768286
151	0x3b5dcc4a	0.003384369
152	0xbf872ffa	-1.0561516
153	0xbf7fe932	-0.999652
154	0xbe47525f	-0.19465016
155	0x3e150d36	0.14555821
156	0xbeca3d30	-0.39499807
157	0xbd01f63d	-0.03172897
158	0xbea69f45	-0.32543388
159	0x3e7e6e6d	0.24846812
160	0xbe0b39b0	-0.13596225
161	0xbea617c8	-0.3244002
162	0x3dc8710e	0.097871885
163	0xbe7c7f5a	-0.24657956
164	0xbce2ae88	-0.027671114
165	0xbf0cfad8	-0.5507026
166	0xbde7e569	-0.113230534
167	0xbe52e42e	-0.20594856
168	0x3ea908e0	0.33014584
169	0xbfb773da	-1.433223
170	0xbf9d130c	-1.2271438
171	0x3eeb3ca9	0.45944718
172	0xbdad9d88	-0.08477312
173	0x3f236532	0.63826287
174	0xbe3ebfc8	-0.18627846
175	0xbe818e2c	-0.2530378
176	0xbf06c844	-0.5264933
177	0xbe2b0fbd	-0.16705222
178	0xbe835430	-0.25650167
179	0xbf757d3d	-0.95894223
180	0xbeb16a9b	-0.34651646
181	0x3eba9d34	0.3644806
182	0x3bfd9cfd	0.0077396617
183	0xbd8be33b	-0.0683045
184	0xbea1ab1a	-0.31575853
185	0xbd69c960	-0.05707681
186	0x3e62c4d8	0.22145402
187	0xbf481026	-0.7814964
188	0xbfbc1530	-1.4693966
189	0xbf2c02d3	-0.6719181
190	0xbf937223	-1.1519207
191	0xbd1430fd	-0.03617953
192	0x3d10a663	0.03531493
193	0xbe19860f	-0.14992546
194	0x3e5843b6	0.2111958
195	0x3e417cbe	0.18895242
196	0x3c8b4933	0.017002678
197	0xbe8f18b1	-0.27948526
198	0xbe0d1961	-0.13779213
199	0xbed1f451	-0.4100671
200	0x3c84cd61	0.016211214
201	0x3d5942ee	0.053042345
202	0xbf1b060d	-0.6055611
203	0xbdf4e5a6	-0.119578645
204	0x3e058a79	0.13041104
205	0xbd3ed2c0	-0.046587706
206	0x3d15a7b5	0.03653689
207	0xbef1c04d	-0.47217026
208	0xbe2448d7	-0.16043411
209	0x3cf607f5	0.030033091
210	0xbefef573	-0.49796638
211	0xbebfe765	-0.37481228
212	0xbf308621	-0.68954664
213	0x3e525bc9	0.20542826
214	0xbedaf0f3	-0.42761955
215	0x3c9adc28	0.018903807
216	0xbedb688d	-0.42853203
217	0x3afb25be	0.0019161028
218	0x3e1dfea6	0.15429172
219	0x3e06a4f7	0.13148867
220	0xbe40a362	-0.18812326
221	0xbe74ad21	-0.23894168
222	0xbe7cf9ff	-0.24704741
223	0x3e336daf	0.1752231
224	0xbe0b0ac2	-0.13578323
225	0x3cbef6d9	0.023311066
226	0x3e31bfef	0.17358373
227	0x3e47e7a8	0.19521964
228	0xbe9d73dd	-0.3075246
229	0x3c07a618	0.008279346
230	0xbe96b3ff	-0.294342
231	0xbd08dd2b	-0.033414047
232	0xbd30338c	-0.04301791
233	0xbdd20fbf	-0.102569096
234	0xbde2c2ec	-0.11072335
235	0xbe8ca163	-0.27466878
236	0xbd066963	-0.03281535
237	0xbdc29ee5	-0.09502963
238	0xbf0e455c	-0.55574584
239	0x3d83b1b7	0.06430381
240	0xbe91a398	-0.28445125
241	0xbece5191	-0.40296605
242	0xbed3ad97	-0.41343376
243	0xbdc5df7e	-0.096617684
244	0xbee65a5d	-0.44990817
245	0xbf006f92	-0.5017024
246	0xbe4e7272	-0.20160845
247	0x3e96c1dd	0.2944478
248	0xbdf40893	-0.11915698
249	0x3e6654db	0.22493307
250	0xbdb0861e	-0.08619331
251	0x3e128d19	0.14311637
252	0xbf0604c9	-0.5235105
253	0x3dc297e7	0.09501629
254	0x3e35a91b	0.1774029
255	0x3c4fd830	0.01268582

model.fc2.bias f4 [32]
0	0x3eb432c2	0.35194975
1	0x3e6c6baa	0.23087946
2	0x3ece3861	0.4027739
3	0x3f745fb7	0.9545855
4	0xbe26b838	-0.16281211
5	0x3f885b67	1.0652894
6	0xbebb2436	-0.36551064
7	0xbe0b0677	-0.13576685
8	0x3d858007	0.0651856
9	0x3f54244d	0.8286789
10	0xbe56682b	-0.20938174
11	0xbd4edf75	-0.050506074
12	0xbd36c9fc	-0.04462622
13	0x3f0216d5	0.5081609
14	0x3f74e0a6	0.95655286
15	0xbd37888f	-0.044807967
16	0x3e0f177c	0.13973802
17	0x3d24eb89	0.040263686
18	0x3c2a4b16	0.010393878
19	0x3f806f2f	1.003393
20	0x3effb3e0	0.4994192
21	0xbd0a5cc4	-0.033779874
22	0x3e61b7b9	0.22042741
23	0x3e8e732f	0.27822253
24	0xbdc4fb93	-0.096182965
25	0x3e5a4b34	0.2131775
26	0xbebeb76b	-0.37249312
27	0x3f3b264e	0.73105323
28	0x3ebe4e58	0.37169147
29	0xbf098528	-0.53718805
30	0xbf1204bf	-0.5703849
31	0xbe47a97b	-0.19498245

model.logit.weight f4 [4, 32]
0	0xbf8d3a67	-1.1033448
1	0xbd8c0433	-0.068367384
2	0xbe36c253	-0.17847566
3	0x3ec58667	0.38579103
4	0x3dd61807	0.104538016
5	0x3edbdb3b	0.42940697
6	0xbf75b976	-0.95986116
7	0x3d6a45e4	0.05719556
8	0x3d198f01	0.037489895
9	0x3e9fbef5	0.31200376
10	0x3dc4ee15	0.09615723
11	0xbe896d9a	-0.26841432
12	0x3e18ebcf	0.14933704
13	0xbfcb1294	-1.5865045
14	0x3eab414b	0.33448252
15	0x3e191e33	0.14952926
16	0xbeff219e	-0.49830335
17	0x3e4f49ed	0.20243044
18	0x3e33f087	0.17572223
19	0x3e989b2b	0.29805884
20	0x3d2ab9ce	0.041681103
21	0xbbbcc3ca	-0.0057606446
22	0xbf854151	-1.0410558
23	0xbe8356a6	-0.25652045
24	0x3d97f705	0.07420162
25	0xbfaca695	-1.3488337
26	0xbefe222f	-0.49635455
27	0x3d3f2789	0.046668563
28	0xbfd1c0cb	-1.6386961
29	0xbee582e0	-0.44826412
30	0xbeff4e5d	-0.49864474
31	0xbe800d33	-0.2501007
32	0x3e9052fd	0.28188315
33	0x3e017850	0.12643552
34	0x3e2c7559	0.1684164
35	0x3e8cdf53	0.27514133
36	0xbdb6b038	-0.0892033
37	0x3eb843f8	0.35989356
38	0xbed8674d	-0.42266312
39	0x3e1af56b	0.15132682
40	0x3e4a7870	0.19772506
41	0x3ece77ee	0.40325874
42	0x3dfca19e	0.123355135
43	0x3eb1f282	0.3475533
44	0x3d238963	0.039925944
45	0x3e806dae	0.2508368
46	0x3e56e27d	0.20984836
47	0xbcc5b517	-0.024134202
48	0xbdbdf90a	-0.09276016
49	0xbe2d6e5d	-0.16936632
50	0x3e5a0961	0.2129264
51	0x3ecb0bb4	0.39657366
52	0xbc8728de	-0.01649898
53	0xbd82e272	-0.06390847
54	0x3f217419	0.63067776
55	0x3e6fd07b	0.23419373
56	0xbef3c374	-0.47610056
57	0xbf086616	-0.5328077
58	0x3deb7755	0.1149737
59	0x3e97ea27	0.29670832
60	0xbea64a1b	-0.32478413
61	0xbe8c632e	-0.27419418
62	0xbe8d1d90	-0.27561617
63	0xbbb33142	-0.0054685185
64	0xbef82853	-0.48468265
65	0xbef3e643	-0.47636613
66	0xbfdf990d	-1.7468582
67	0x3e864894	0.26227248
68	0x3d540f9f	0.05177271
69	0x3ebe00cd	0.37109986
70	0x3ea5fde9	0.3242028
71	0x3d8c6861	0.06855846
72	0xbfa9915f	-1.3247489
73	0x3d857b80	0.065176964
74	0xbc4e6596	-0.012597462
75	0x3f2038b3	0.62586516
76	0x3d3476e5	0.0440587
77	0xbfba9c10	-1.4578876
78	0x3eaf08f6	0.34186524
79	0x3de30e64	0.11086729
80	0xbc3cf707	-0.011533505
81	0x3ec3e1a6	0.38258094
82	0xbe9f111d	-0.31067744
83	0x3e8ebbdb	0.27877697
84	0xbee017b1	-0.43768075
85	0x3e12597f	0.14291953
86	0x3e7b8449	0.24562182
87	0x3e2bd7a4	0.16781479
88	0x3dcc5122	0.09976412
89	0x3e510133	0.20410614
90	0x3d79dcfa	0.061001755
91	0x3f16988d	0.58826524
92	0xbf04241c	-0.516176
93	0xbee50420	-0.4472971
94	0xbf16fe16	-0.58981454
95	0xbf4f7de7	-0.81051487
96	0x3ee68142	0.4502049
97	0xbf7ab81d	-0.97937185
98	0xbf7b535b	-0.98174065
99	0x3ebd323a	0.36952382
100	0x3dc344a9	0.0953458
101	0x3e884b0f	0.26619765
102	0xbed72609	-0.42021206
103	0xbe50f5ad	-0.20406218
104	0x3e1ee1e2	0.15515855
105	0x3e9f7b3b	0.31148705
106	0xba91b46e	-0.0011116394
107	0xbec5733d	-0.38564482
108	0xbf7d719d	-0.99001485
109	0x3d746d48	0.05967453
110	0x3ec26d34	0.3797394
111	0xbdcebeb8	-0.100949705
112	0x3ee29eff	0.4426193
113	0xbdd879b8	-0.10570091
114	0xbe298327	-0.16553937
115	0x3e9e26f4	0.30889094
116	0xbf234d02	-0.6378938
117	0x3d6f10f5	0.05836578
118	0x3c44252f	0.011971756
119	0xbf83d4bb	-1.0299295
120	0xbe5043bc	-0.20338339
121	0x3dd3e47d	0.10346315
122	0x3e9e8ca5	0.30966678
123	0x3ead4967	0.33845064
124	0x3d9ecc1b	0.07753774
125	0xbebd6186	-0.36988467
126	0xbe464dd7	-0.19365631
127	0xbec6e9af	-0.3885016

model.logit.bias f4 [4]
0	0x3f35678d	0.7086113
1	0x3f1afca5	0.60541755
2	0x3f1e71a1	0.61892134
3	0x3f122a17	0.57095474
